[2023-04-23 13:41:30,598: INFO: 01_base_model_creation]: 
********************
[2023-04-23 13:41:30,598: INFO: 01_base_model_creation]: >>>>> stage Creating Base Model started <<<<<
[2023-04-23 13:41:30,601: INFO: common]: yaml file: configs/config.yaml loaded successfully
[2023-04-23 13:41:32,084: INFO: 01_base_model_creation]: Base model summary:Model: "sequential"
_________________________________________________________________
 Layer (type)                Output Shape              Param #   
=================================================================
 inputlayer (Flatten)        (None, 784)               0         
                                                                 
 hiddenlayer1 (Dense)        (None, 300)               235500    
                                                                 
 leaky_re_lu (LeakyReLU)     (None, 300)               0         
                                                                 
 hiddenlayer2 (Dense)        (None, 100)               30100     
                                                                 
 leaky_re_lu_1 (LeakyReLU)   (None, 100)               0         
                                                                 
 output (Dense)              (None, 10)                1010      
                                                                 
=================================================================
Total params: 266,610
Trainable params: 266,610
Non-trainable params: 0
_________________________________________________________________

[2023-04-23 13:42:25,702: INFO: 01_base_model_creation]: Base Model File is saved: classifier_20230423134225.h5
[2023-04-23 13:42:27,780: INFO: data_mgmt]: Model evaluation : [0.3117014467716217, 0.9114999771118164]
[2023-04-23 13:42:41,085: INFO: 01_base_model_creation]: >>>>> stage Creating Base Model completed!<<<<<

[2023-04-23 14:16:05,395: INFO: 01_base_model_creation]: 
********************
[2023-04-23 14:16:05,396: INFO: 01_base_model_creation]: >>>>> stage Creating Base Model started <<<<<
[2023-04-23 14:16:05,402: INFO: common]: yaml file: configs/config.yaml loaded successfully
[2023-04-23 14:16:06,840: INFO: 01_base_model_creation]: Base model summary:Model: "sequential"
_________________________________________________________________
 Layer (type)                Output Shape              Param #   
=================================================================
 inputlayer (Flatten)        (None, 784)               0         
                                                                 
 hiddenlayer1 (Dense)        (None, 300)               235500    
                                                                 
 leaky_re_lu (LeakyReLU)     (None, 300)               0         
                                                                 
 hiddenlayer2 (Dense)        (None, 100)               30100     
                                                                 
 leaky_re_lu_1 (LeakyReLU)   (None, 100)               0         
                                                                 
 output (Dense)              (None, 10)                1010      
                                                                 
=================================================================
Total params: 266,610
Trainable params: 266,610
Non-trainable params: 0
_________________________________________________________________

[2023-04-23 14:17:58,379: INFO: 01_base_model_creation]: 
********************
[2023-04-23 14:17:58,380: INFO: 01_base_model_creation]: >>>>> stage Creating Base Model started <<<<<
[2023-04-23 14:17:58,383: INFO: common]: yaml file: configs/config.yaml loaded successfully
[2023-04-23 14:17:59,358: INFO: 01_base_model_creation]: Base model summary:Model: "sequential"
_________________________________________________________________
 Layer (type)                Output Shape              Param #   
=================================================================
 inputlayer (Flatten)        (None, 784)               0         
                                                                 
 hiddenlayer1 (Dense)        (None, 300)               235500    
                                                                 
 leaky_re_lu (LeakyReLU)     (None, 300)               0         
                                                                 
 hiddenlayer2 (Dense)        (None, 100)               30100     
                                                                 
 leaky_re_lu_1 (LeakyReLU)   (None, 100)               0         
                                                                 
 output (Dense)              (None, 10)                1010      
                                                                 
=================================================================
Total params: 266,610
Trainable params: 266,610
Non-trainable params: 0
_________________________________________________________________

[2023-04-23 14:19:05,870: INFO: 01_base_model_creation]: Base Model File is saved: classifier.h5
[2023-04-23 14:19:05,884: ERROR: 01_base_model_creation]: name 'filename_unique' is not defined
…
[2023-04-23 14:25:54,803: INFO: 02_transfer_learning]: >>>>> stage Transfer Learning completed!<<<<<

[2023-04-23 14:35:00,192: INFO: 02_transfer_learning]: 
********************
[2023-04-23 14:35:00,194: INFO: 02_transfer_learning]: >>>>> stage Transfer Learning started <<<<<
[2023-04-23 14:35:00,200: INFO: common]: yaml file: configs/config.yaml loaded successfully
[2023-04-23 14:35:01,875: INFO: 02_transfer_learning]: Loaded base model summary:Model: "sequential"
_________________________________________________________________
 Layer (type)                Output Shape              Param #   
=================================================================
 inputlayer (Flatten)        (None, 784)               0         
                                                                 
 hiddenlayer1 (Dense)        (None, 300)               235500    
                                                                 
 leaky_re_lu (LeakyReLU)     (None, 300)               0         
                                                                 
 hiddenlayer2 (Dense)        (None, 100)               30100     
                                                                 
 leaky_re_lu_1 (LeakyReLU)   (None, 100)               0         
                                                                 
 output (Dense)              (None, 10)                1010      
                                                                 
=================================================================
Total params: 266,610
Trainable params: 266,610
Non-trainable params: 0
_________________________________________________________________

[2023-04-23 14:35:01,914: INFO: 02_transfer_learning]: Loaded base model summary:Model: "sequential"
_________________________________________________________________
 Layer (type)                Output Shape              Param #   
=================================================================
 inputlayer (Flatten)        (None, 784)               0         
                                                                 
 hiddenlayer1 (Dense)        (None, 300)               235500    
                                                                 
 leaky_re_lu (LeakyReLU)     (None, 300)               0         
                                                                 
 hiddenlayer2 (Dense)        (None, 100)               30100     
                                                                 
 leaky_re_lu_1 (LeakyReLU)   (None, 100)               0         
                                                                 
 output (Dense)              (None, 2)                 202       
                                                                 
=================================================================
Total params: 265,802
Trainable params: 202
Non-trainable params: 265,600
_________________________________________________________________

[2023-04-23 14:35:01,959: INFO: 02_transfer_learning]: >>>>> stage Transfer Learning completed!<<<<<

[2023-04-23 14:37:58,753: INFO: 02_transfer_learning]: 
…
[2023-04-23 14:38:35,269: INFO: 02_transfer_learning]: >>>>> stage Transfer Learning completed!<<<<<

[2023-04-23 14:49:26,826: INFO: 02_transfer_learning]: 
********************
[2023-04-23 14:49:26,828: INFO: 02_transfer_learning]: >>>>> stage Transfer Learning started <<<<<
[2023-04-23 14:49:26,831: INFO: common]: yaml file: configs/config.yaml loaded successfully
[2023-04-23 14:49:28,483: INFO: 02_transfer_learning]: Loaded base model summary:Model: "sequential"
_________________________________________________________________
 Layer (type)                Output Shape              Param #   
=================================================================
 inputlayer (Flatten)        (None, 784)               0         
                                                                 
 hiddenlayer1 (Dense)        (None, 300)               235500    
                                                                 
 leaky_re_lu (LeakyReLU)     (None, 300)               0         
                                                                 
 hiddenlayer2 (Dense)        (None, 100)               30100     
                                                                 
 leaky_re_lu_1 (LeakyReLU)   (None, 100)               0         
                                                                 
 output (Dense)              (None, 10)                1010      
                                                                 
=================================================================
Total params: 266,610
Trainable params: 266,610
Non-trainable params: 0
_________________________________________________________________

[2023-04-23 14:49:28,523: INFO: 02_transfer_learning]: Loaded base model summary:Model: "sequential"
_________________________________________________________________
 Layer (type)                Output Shape              Param #   
=================================================================
 inputlayer (Flatten)        (None, 784)               0         
                                                                 
 hiddenlayer1 (Dense)        (None, 300)               235500    
                                                                 
 leaky_re_lu (LeakyReLU)     (None, 300)               0         
                                                                 
 hiddenlayer2 (Dense)        (None, 100)               30100     
                                                                 
 leaky_re_lu_1 (LeakyReLU)   (None, 100)               0         
                                                                 
 output (Dense)              (None, 2)                 202       
                                                                 
=================================================================
Total params: 265,802
Trainable params: 202
Non-trainable params: 265,600
_________________________________________________________________

[2023-04-23 14:50:33,372: INFO: 02_transfer_learning]: 
********************
[2023-04-23 14:50:33,372: INFO: 02_transfer_learning]: >>>>> stage Transfer Learning started <<<<<
[2023-04-23 14:50:33,378: INFO: common]: yaml file: configs/config.yaml loaded successfully
[2023-04-23 14:50:47,292: INFO: 02_transfer_learning]: Loaded base model summary:Model: "sequential"
_________________________________________________________________
 Layer (type)                Output Shape              Param #   
=================================================================
 inputlayer (Flatten)        (None, 784)               0         
                                                                 
 hiddenlayer1 (Dense)        (None, 300)               235500    
                                                                 
 leaky_re_lu (LeakyReLU)     (None, 300)               0         
                                                                 
 hiddenlayer2 (Dense)        (None, 100)               30100     
                                                                 
 leaky_re_lu_1 (LeakyReLU)   (None, 100)               0         
                                                                 
 output (Dense)              (None, 10)                1010      
                                                                 
=================================================================
Total params: 266,610
Trainable params: 266,610
Non-trainable params: 0
_________________________________________________________________

[2023-04-23 14:50:54,133: INFO: 02_transfer_learning]: Loaded base model summary:Model: "sequential"
_________________________________________________________________
 Layer (type)                Output Shape              Param #   
=================================================================
 inputlayer (Flatten)        (None, 784)               0         
                                                                 
 hiddenlayer1 (Dense)        (None, 300)               235500    
                                                                 
 leaky_re_lu (LeakyReLU)     (None, 300)               0         
                                                                 
 hiddenlayer2 (Dense)        (None, 100)               30100     
                                                                 
 leaky_re_lu_1 (LeakyReLU)   (None, 100)               0         
                                                                 
 output (Dense)              (None, 2)                 202       
                                                                 
=================================================================
Total params: 265,802
Trainable params: 202
Non-trainable params: 265,600
_________________________________________________________________

[2023-04-23 14:51:54,971: INFO: 02_transfer_learning]: New Model File is saved: retrained_classifier.h5
[2023-04-23 14:51:57,060: INFO: data_mgmt]: Model evaluation : [0.287143737077713, 0.8826000094413757]
…
